backend/tree_model.pth (torch, 620518 bytes, 6 tensors)

fc1.weight f4 [32, 15]
000000 20 4f fb 3e fc 83 e7 3c 9c 2d 13 be 87 03 66 3e
       0.49083805 0.028261177 -0.14372867 0.22462283
000010 b5 4b 0d bf 14 fb 6b 3e 89 aa f7 3e 3f 4c cc be
       -0.55193645 0.23044997 0.48372295 -0.3990192
000020 2c 5c 4e 3c 01 b8 f0 3e 27 30 58 3e 56 28 fb 3e
       0.012595218 0.47015384 0.21112119 0.4905421
000030 5e 8e 08 bd d0 81 e5 be 9d e8 a1 3f 50 8c bb be
       -0.033338897 -0.44825602 1.2649113 -0.36630487
000040 f6 13 6d bd 0b c3 0e 3e 21 13 a0 3e 8b 83 16 bf
       -0.057880364 0.1394159 0.31264594 -0.5879447
000050 ab 1f d8 3e f3 38 3b 3e 77 b7 df be 2e bb 8c 3e
       0.4221166 0.18283443 -0.4369466 0.27486557
000060 05 45 ed bd 36 68 42 be f4 68 96 be 28 ab ff be
       -0.1158543 -0.18985066 -0.29376948 -0.4993527
000070 fe 50 7f be c6 22 9a be ec 05 57 bf f8 5e 9c bd
       -0.2493324 -0.30104655 -0.8399341 -0.07635301
000080 5d db d7 3e 7b 39 da bd 32 ce 57 be 5a bd 22 bd
       0.42159548 -0.10655495 -0.21074751 -0.03973136
000090 c3 13 a1 3e 4e 32 9a 3e d2 7f e3 be c7 ae e5 3e
       0.3146039 0.30116504 -0.44433457 0.44859907
0000a0 5b b6 71 3e 20 0f e3 3d cf 88 08 3d 2c be 8c be
       0.2360472 0.11086869 0.033333596 -0.2748884
0000b0 21 ce 8d bd b1 ea 2b bf 07 7f 96 3e e2 1a 89 3e
       -0.069240816 -0.67154986 0.2939379 0.26778322
0000c0 e4 ce 80 3e 09 a4 94 be 1f c7 79 be c3 dd ce 3e
       0.25157845 -0.290314 -0.24392365 0.40403566
0000d0 d2 17 aa be b7 85 06 3d 4b fe ae 3e c0 40 46 be
       -0.33221298 0.032842364 0.34178385 -0.19360638
0000e0 d7 aa 1d bf f6 ad 3a bd e8 bd 25 bd 2c 4c 5c be
       -0.61588806 -0.04557606 -0.04046431 -0.21513432
0000f0 68 cd 65 3e 2d de c8 bd 9c ca b4 3e 6b e9 52 be
       0.22441638 -0.09808002 0.3531083 -0.20596854
000100 53 cd 88 3e 91 d3 7b 3d f0 9f 43 3e c1 65 b0 3e
       0.2671915 0.061481062 0.1910398 0.34452632
000110 1f 9a 81 3e fb 05 3b 3e da 61 88 3e 55 81 bb be
       0.25312898 0.18264 0.26637155 -0.3662211
000120 e1 73 c1 be ec 1b 2c 3d c7 b6 cf 3e 6b e1 09 3f
       -0.3778372 0.042018816 0.40569136 0.53859586
000130 53 c8 85 3e d6 e4 9a 3d 11 98 a0 3e 77 04 d9 3e
       0.26129398 0.07563178 0.31366017 0.4238622
000140 79 d5 ba 3e 6d 41 cb be 08 f5 d0 be 73 7d f4 3e
       0.36490992 -0.39698353 -0.40811944 0.4775196
000150 e2 aa e9 3c 70 30 8a be b6 6a 98 3e 0c e3 2f 3e
       0.028523866 -0.2699008 0.29768914 0.17176455
000160 ee a0 9a be 83 6d cc be 7b a0 46 3f 7e 04 bf be
       -0.30200905 -0.399273 0.77588624 -0.37308115
000170 45 a5 df 3e c3 79 25 bd d8 83 ba be 42 b0 86 3e
       0.43680778 -0.040399324 -0.36428714 0.2630635
000180 33 32 dc 3e 00 4d 8e be e1 df db 3e 22 71 d1 3e
       0.4300705 -0.2779312 0.42944244 0.40906626
000190 40 52 b1 be 30 36 1a bd 51 dc f5 be d6 e8 1a 3f
       -0.34633064 -0.037649333 -0.4801965 0.6051153
0001a0 ef c0 b6 bd 51 14 1e bf 8c c1 cf 3e 01 ad 18 3e
       -0.08923518 -0.6174975 0.40577352 0.14909746
0001b0 98 25 8b be a5 17 dc 3e 4b aa 57 bd 20 11 37 bd
       -0.2717712 0.4298679 -0.05265264 -0.044694066
0001c0 7c 3a 83 be 5f 58 aa bd fd 96 96 be 01 8e 12 3f
       -0.25630558 -0.08317637 -0.2941207 0.5724793
0001d0 e8 aa dc be bb 30 b9 3e 4a 4b 8c 3e 3a d8 9c bd
       -0.4309914 0.3616999 0.2740119 -0.076584294
0001e0 fa 40 0d bd 78 d9 08 3f 55 e0 ea bd d9 f5 0a 3e
       -0.034485795 0.5345683 -0.11468569 0.13570346
0001f0 c1 87 c1 bc 21 55 c1 be 89 0d e8 bc fe aa 48 3e
       -0.023624303 -0.3776026 -0.028326767 0.19596478
000200 dc 55 c4 3e 2b ac 02 bf a1 bb 2b 3e 8e 19 e2 3d
       0.38346756 -0.5104396 0.16770793 0.110400304
000210 5f 59 ea 3d b8 ce da 3e cb 21 ac be 73 a7 93 3e
       0.114428274 0.4273584 -0.33619532 0.2883869
000220 57 3b 11 3f 0a b2 d3 3e 0b 33 03 bf e5 f1 4f 3d
       0.5673117 0.4134677 -0.5124976 0.050767798
000230 0f fc be bd 96 df b4 be 6c 4a 13 be 34 e8 86 3e
       -0.0932542 -0.35326833 -0.14383858 0.26349032
000240 23 b5 ca 3d 5a 7e 0c 3f cb 1b 73 be 21 15 91 3e
       0.0989783 0.548803 -0.23741071 0.28336433
000250 4b ce 04 be 3d 72 8a 3d 5b 1d 3c bf 09 69 1e 3f
       -0.1296932 0.067600705 -0.7348229 0.6187902
000260 53 cb 97 3e 25 3c 69 3e 05 61 ba bd 58 ff 4c 3e
       0.29647312 0.2277685 -0.09100536 0.20019281
000270 56 14 cf 3e 09 16 c0 be fc 12 df be 11 f3 b9 be
       0.40445203 -0.3751681 -0.4356917 -0.36318257
000280 bf cb 9e be f1 4c 07 3f 2f 1c cd bd a4 58 0e 3f
       -0.3101482 0.5285178 -0.10015141 0.55604005
000290 70 32 96 be d2 ec e1 be a9 4d 0d 3e 76 4b a8 3e
       -0.29335356 -0.44125992 0.13799156 0.32870072
0002a0 2d e4 bf 3e b7 6d 95 be 71 73 ab bb 40 ca bc 3e
       0.37478772 -0.29185268 -0.0052322675 0.36873055
0002b0 95 d6 d9 be ed 1e d6 be 02 d7 bd be 42 06 0b 3e
       -0.42546526 -0.4182047 -0.370781 0.13576606
0002c0 ff 72 7f be 12 b6 49 bd bc 7e 88 3b 44 0a b7 be
       -0.24946211 -0.0492459 0.0041654985 -0.3575002
0002d0 97 f3 3f bf 82 97 e3 3e ba 2a 4e be 1d 47 da 3e
       -0.74981064 0.4445153 -0.20133486 0.4263238
0002e0 6f 46 f7 3e 20 fe 03 3f df 4e a6 be 3b 65 00 3f
       0.48295924 0.5155964 -0.3248205 0.50154465
0002f0 94 08 11 be 73 e7 b5 be aa ae dd bc 0f ff 83 3d
       -0.14163429 -0.35528144 -0.027060825 0.06445133
000300 be d5 28 3e 3f 8a b5 3e 5b cb 96 3e 94 c1 0c bf
       0.16487786 0.35457036 0.29452023 -0.54982877
000310 d5 8d 1a 3f 07 37 f5 3e 34 5c 3b be 91 2c 68 3e
       0.6037267 0.47893545 -0.18296891 0.2267325
000320 ee c8 b7 3e cb b8 cd 3b dd 01 48 3e b3 cd 83 3d
       0.35895485 0.0062781326 0.19531961 0.064357184
000330 0c 26 59 3e 3a fe c7 bd 97 5e 5e 3e e6 85 9c be
       0.2120592 -0.09765287 0.2171577 -0.30570906
000340 fa 2e 64 be 47 12 2a 3e 8b a8 68 3e 27 4b 1d 3e
       -0.22283545 0.16608535 0.22720544 0.153607
000350 a6 d4 eb 3e ee f9 df 3e a9 0f bc 3d 47 0d 39 3e
       0.46060675 0.4374537 0.091826744 0.18071471
000360 5b 8d b0 3e 5e 04 f4 be 39 24 89 be bd 2c bc 3d
       0.34482846 -0.47659582 -0.26785448 0.09188221
000370 57 18 0a bf c8 21 c2 3e b7 48 5f 3e 76 0e db bc
       -0.5394339 0.37916398 0.21805082 -0.026740294
000380 f8 51 4e be 73 b3 cd be 55 8c 0f be 79 d9 80 3e
       -0.20148456 -0.4017597 -0.14018376 0.25165918
000390 d6 e0 7b 3e 22 66 a5 3e 45 39 96 3d ed 15 b4 3e
       0.24597487 0.32304484 0.07335142 0.35172978
0003a0 2e 8f 77 3e d3 c9 f2 3e 74 1a 8d 3e 77 1c 85 3c
       0.24175712 0.47419605 0.27559245 0.016248925
0003b0 13 80 13 3c 4d b5 ee be 3a a2 a6 3e 3d 40 55 be
       0.009002703 -0.46622697 0.32545644 -0.20825286
0003c0 13 f1 3e 3f 1f 55 3d 3f ac 0c 26 be 75 2c ac be
       0.745866 0.7395801 -0.16215771 -0.33627668
0003d0 c5 f5 2f 3e 77 3c 80 bb ea e1 08 3e e3 ad 69 3e
       0.17183597 -0.003913458 0.1336743 0.22820239
0003e0 62 58 2d be d8 72 2a 3e 73 68 95 bd 9c 09 05 3e
       -0.16928247 0.16645372 -0.07295313 0.12991947
0003f0 88 8b 41 be 56 cd 81 3e c2 28 24 be bb 30 69 3f
       -0.18900883 0.2535197 -0.16031173 0.9108998

fc1.bias f4 [32]
000000 4b b3 09 3f ce 88 bf 3d ad 88 31 3e 62 65 f7 ba
       0.53789204 0.09352265 0.17337294 -0.0018874819
000010 92 d5 76 3e 01 58 5e 3d 67 e5 84 3e 71 eb 21 bc
       0.24104908 0.054283146 0.2595627 -0.009882794
000020 64 f8 c8 3e 22 db 1e 3e 81 df ce 3e 1e 01 68 3c
       0.39252007 0.1551328 0.40404895 0.014160423
000030 16 9a 0a 3f a8 46 6b 3e 7a 3c 47 bc fe 2b fd 3c
       0.54141366 0.22976172 -0.012160415 0.030904766
000040 78 10 80 3e eb e4 dc 3e 01 f2 d8 3e c3 84 6c 3e
       0.25012565 0.431434 0.42372134 0.2309752
000050 59 41 2f 3d d6 55 13 3f 99 c9 58 3e 3e 33 af 3d
       0.04278693 0.5755285 0.21170653 0.085546955
000060 44 2f 9a 3e 5a 21 d2 3e 78 e0 e8 3e 88 4d 1c 3e
       0.30114186 0.4104107 0.45483756 0.15263951
000070 8d 3a 51 bc 6e c5 04 3f 04 04 b0 3e 4a 76 38 3e
       -0.012770307 0.51863754 0.34378064 0.18013874

fc2.weight f4 [64, 32]
000000 9f d2 d9 3e 18 9d 03 be 46 f0 b4 3e 80 16 1e 3c
       0.42543504 -0.12852895 0.35339564 0.009648919
000010 fd d0 8c 3e 39 d9 e9 3e 61 ad 6f be 2b d1 1f be
       0.27503195 0.4567354 -0.23405983 -0.15607135
000020 00 65 9f bc 48 f4 68 bd 59 d0 8b be 7e 6c 5e be
       -0.01945734 -0.05687359 -0.27307394 -0.21721074
000030 a2 1f b9 3e 04 43 dc 3c a8 f7 e5 3d 7e 60 3b 3e
       0.36156946 0.026887424 0.11228877 0.18298528
000040 c9 4b df 3e 69 d5 50 3e 2f 1e 01 3d e1 77 b2 3e
       0.43612507 0.2039391 0.031522926 0.34857085
000050 e8 20 d4 3e bc 3c cf bd af 9d c5 3e b5 41 93 3e
       0.41431355 -0.10119006 0.38596866 0.28761068
000060 5a 56 ba 3e 7d 16 f2 3b a9 4e 03 be e8 b9 01 3e
       0.36394006 0.0073879347 -0.12822975 0.12668574
000070 ab ac 38 be 3a cd 8c be 72 8b 50 3e e0 e2 91 be
       -0.18034618 -0.27500325 0.20365694 -0.28493404
000080 ee 76 19 3f 3e 73 9a 3e b1 a8 ba 3e 42 fb 56 3e
       0.599471 0.30166048 0.36456826 0.20994285
000090 a9 fc 01 be 6b 07 de bd 69 04 80 3d 22 ce aa 3e
       -0.12694038 -0.108412586 0.06250841 0.33360392
0000a0 d9 42 c0 3d 5a 0e fe 3e 1a da c7 be 9a 4d e9 bd
       0.0938775 0.49620324 -0.39033586 -0.113917544
0000b0 67 8e 9b bd e8 13 f9 3c 08 9d 95 bd be 10 a9 be
       -0.075955205 0.030405 -0.07305342 -0.33020586
0000c0 ac 4d 2a 3d 1b 77 b6 3e 82 fc a0 3e ad 9b 24 be
       0.04157798 0.35637745 0.31442648 -0.1607501
0000d0 09 0c 7a 3a e3 04 4e be e9 07 ee 3d ea 2f d3 3e
       0.00095385365 -0.20119052 0.116226025 0.41247493
0000e0 28 81 8d be f0 48 15 bd 40 b8 0f be 22 7e 05 be
       -0.276376 -0.03644651 -0.1403513 -0.13036397
0000f0 bd 73 9a 3e 00 ff ea 3e 4c 86 a9 3d 84 69 25 3d
       0.30166426 0.45897675 0.08277568 0.04038383
000100 fa 32 2b bf 48 13 6a 3d fa ec 54 3e cb ba 51 3d
       -0.6687466 0.057147294 0.20793524 0.05120353
000110 a8 28 28 3c 2b e4 b7 3e 28 5a 7d bd fc 6e 14 3e
       0.010263599 0.35916266 -0.061853558 0.14495462
000120 7d 4b c6 3e 4b 3d 3c bc b4 9b c8 3e 1c e0 1b 3d
       0.38729468 -0.011489223 0.39181292 0.038055524
000130 2c 41 0a 3f 63 96 9d bc 27 5b a1 3e 1e 78 d2 3e
       0.54005694 -0.019236749 0.31514856 0.41107267
000140 d7 ce 0c bf 4e ad 78 3d 43 69 7a 3d be f1 a1 3e
       -0.5500311 0.06071215 0.06113554 0.31629747
000150 84 4b 3c bd 16 cd 82 3e f1 3e c2 bd ae fd 90 be
       -0.045970455 0.25547093 -0.09484661 -0.28318542
000160 af dc 80 be 3d 92 2e 3e 2a 31 af 3e 73 5a bc be
       -0.25168368 0.17047973 0.34217197 -0.36787757
000170 25 44 9d 3e 07 dd 05 3f fc b2 e2 3e d1 90 2a 3c
       0.30716053 0.52290386 0.4427718 0.0104105035
000180 82 4f 82 3e d3 52 5c 3e 8d 2e 14 be 55 2f 31 bd
       0.25451285 0.2151597 -0.14470883 -0.04325803
000190 0f b7 18 3e 2a f6 33 3d 30 b7 b2 3c 0d 6d ff 3d
       0.14913581 0.043935932 0.021815866 0.12471972
0001a0 7e 5f 83 bd fb 32 b6 3e e4 ff 47 bd 1c 61 1c 3e
       -0.06414698 0.3558577 -0.04882802 0.1527142
0001b0 ce 6d 2f 3e 04 de 68 3e 58 a9 51 3e 44 49 10 bd
       0.17131731 0.22740942 0.20474756 -0.03522612
0001c0 54 0c 09 3e 52 7a cf bb b6 47 65 3d da 3f c8 bd
       0.13383609 -0.0063317204 0.055976592 -0.09777804
0001d0 5f 66 50 be a8 4c 9f 3d 4a 23 9c 3e 0b 15 91 3e
       -0.20351551 0.07778293 0.30495673 0.28336367
0001e0 42 33 2c 3e b3 a3 a3 3e b8 44 02 be e5 f0 83 3e
       0.16816428 0.3196083 -0.12721527 0.25769725
0001f0 af 4e 17 3e e7 ac 7a be 17 35 6a be 66 a7 c7 be
       0.14776109 -0.2448002 -0.22871815 -0.38994902
000200 d8 f0 8a 3d b7 14 f3 3d 1d 81 95 3e c7 a2 b1 3e
       0.067842185 0.118691854 0.29200068 0.34694502
000210 ca b8 22 bd ee 3e a1 3e 4c 97 b3 be 3c 11 21 be
       -0.03972701 0.31493324 -0.35076368 -0.1572923
000220 12 de 9e bd bc 0f 5f be 3d a5 2e 3e f2 1c 0d 3e
       -0.077572 -0.21783346 0.17055221 0.13780573
000230 55 b7 18 bd 6f 3e 0d be fc b4 52 3e 54 44 aa 3d
       -0.037284214 -0.13793348 0.20576853 0.08313814
000240 83 11 44 be ff 66 bb bd 69 f8 c6 bd 84 48 09 be
       -0.19147305 -0.09150504 -0.09715349 -0.13406569
000250 df 32 30 be e1 d8 2f 3e 2a 44 ae bd e3 52 f4 bc
       -0.17206906 0.17172576 -0.08509095 -0.02982468
000260 83 4c b0 bd c5 e7 13 3e f8 00 a4 3e e5 90 a4 3e
       -0.086083435 0.14443882 0.3203199 0.32141796
000270 be 57 10 3e 88 93 26 bc 5b fe ba 3e 24 8c 8a be
       0.14095971 -0.01016701 0.36522183 -0.27060044
000280 e8 58 3c be 79 7e 55 3d a0 86 32 be 76 db 5b 3e
       -0.1839329 0.052122567 -0.17434168 0.21470436
000290 e6 0a 57 3e 9d 39 58 3e 88 57 2a be d3 f5 9d 3d
       0.21000251 0.21115728 -0.16634953 0.07712903
0002a0 a3 3b 21 3e 72 ff f5 3d 3d fa 22 3e 6f 26 eb 3c
       0.15745406 0.12011613 0.15915771 0.02870485
0002b0 bf b2 d7 3e 77 b0 d1 3c 07 98 c8 bd 50 c0 30 be
       0.4212856 0.02559684 -0.09794622 -0.17260861
0002c0 b3 01 b9 3e 7d db f3 3b 2a 4d ac 3d 65 4b e9 bd
       0.3613411 0.0074419365 0.084131554 -0.113913335
0002d0 21 af 47 3e a0 f7 6b bd 22 a7 82 bc 5d e1 8a bd
       0.195004 -0.0576092 -0.015948836 -0.06781266
0002e0 fa 36 9b 3e 2e 65 79 be 33 a5 12 be c2 f0 9b be
       0.3031538 -0.24355003 -0.14320831 -0.3045712
0002f0 ca 4a 23 be 9b f3 28 3e d4 01 31 bd 92 09 cf ba
       -0.15946499 0.16499178 -0.043214634 -0.0015795699
000300 ef e3 85 3e 20 17 f8 3d 1c 07 9b be 32 46 17 3d
       0.26150462 0.12113786 -0.30278862 0.036932178
000310 10 f2 c8 bc ad 28 59 3d b5 51 91 3e b6 77 82 3d
       -0.024529487 0.053017307 0.2838265 0.06370489
000320 95 52 f6 bd a7 94 57 3e e6 a2 d4 3d 4d 5d 86 be
       -0.1202747 0.210528 0.10382633 -0.26243058
000330 d2 8a 64 be fb 8f 80 3d f2 ea e8 3e da d7 61 3e
       -0.22318581 0.06277462 0.4549175 0.22054997
000340 99 8a 15 3e 0d e4 aa 3d b2 b0 a7 3c 93 27 85 bd
       0.14603652 0.083442785 0.020469997 -0.06501689
000350 cc 65 5f be a7 c7 69 3d 7b 2c 85 be 6c 27 c7 3e
       -0.21816176 0.05707517 -0.26010498 0.38897264
000360 59 6f 7f 3d ba 16 13 3e f6 35 a4 be a7 b4 1c 3e
       0.06236205 0.14364138 -0.3207242 0.15303288
000370 03 c8 eb 3e dd d1 af 3e 68 51 65 3c 32 fb 91 be
       0.46051034 0.343398 0.01399646 -0.2851196
000380 85 87 1b bd 95 b1 28 3d 29 16 e0 bd 26 af 9e 3d
       -0.03797104 0.04118498 -0.10941727 0.07748251
000390 b1 7a 94 3e f5 ce 12 be 29 c2 f9 3d d4 95 ab be
       0.28999856 -0.1433676 0.12195236 -0.33512747
0003a0 e1 2c 44 be a4 23 20 3d ee 75 b4 be 00 72 8d be
       -0.19157745 0.03909649 -0.35246223 -0.27626038
0003b0 49 cc ed bd 0f 90 6c be d1 34 f2 bd df 92 ab bb
       -0.1161123 -0.23101829 -0.1182648 -0.0052360143
0003c0 fe 8e 92 3d 85 a3 05 3e ef df 2b 3e 4b 38 77 3e
       0.0715618 0.13050659 0.16784643 0.24142568
0003d0 96 6c e8 3e 89 1c 8e 3e 72 ed 34 3e 24 d1 8e be
       0.45395344 0.27756146 0.17668703 -0.27893937
0003e0 a0 7b aa 3e f8 fa 93 be 3f 21 3f 3d 71 fb 9a bd
       0.33297443 -0.2890241 0.046662565 -0.0756749
0003f0 af f8 fb 3d 01 9c fb 3e 9e d1 aa 3e 43 0b 3d 3f
       0.12303292 0.4914246 0.3336305 0.7384531

fc2.bias f4 [64]
000000 a2 a3 cb bc d2 6b 9b bd 45 da bf 3d 04 f5 64 3e
       -0.0248583 -0.075889245 0.093678035 0.22359091
000010 5d d1 66 3e 42 83 16 3d 45 09 c2 3d 0e e6 c0 3d
       0.22540803 0.03674627 0.09474424 0.094188794
000020 46 eb 39 3d 30 2e 12 3e e6 4d 9e 3e a7 50 57 bd
       0.04539039 0.14275432 0.30918807 -0.05256715
000030 be 3a 1c bd 50 bc 19 bd 9f 46 3e bc d0 97 96 3e
       -0.03814196 -0.037533104 -0.011613517 0.294127
000040 45 11 ae 3d 11 c4 45 3e ea ff 6f bd 91 15 c8 3d
       0.08499388 0.19313075 -0.058593668 0.097697385
000050 ae 8a a4 3d 5b ae e6 3e af d7 0f bd b3 e4 e8 3c
       0.080342636 0.45054898 -0.0351178 0.028429365
000060 1c a0 68 3e 8e 2e 5b 3e c2 46 3e bb 8a 91 2d 3e
       0.22717327 0.21404478 -0.0029033874 0.1695005
000070 ad 11 b5 3d aa ed b3 3c 13 a4 67 3c ae 8a 81 3d
       0.08841262 0.021963913 0.014138239 0.06325279
000080 7d fe bf 3c a9 21 9f bc 61 88 65 3e 1e f2 80 3d
       0.02343678 -0.01942523 0.22415306 0.0629618
000090 03 54 26 3e a4 01 e2 3c 56 1f e2 3d 0a b2 19 3d
       0.16242985 0.027588673 0.11041133 0.037523307
0000a0 2f 4d a2 3d ed 8f 05 3e 2d 72 a9 3c ea 4f 6c 3e
       0.07924878 0.13043185 0.020684326 0.2307736
0000b0 55 49 29 3e 0b ba 41 3e 97 97 9c bd 54 ff dd 3d
       0.1653188 0.18918626 -0.07646101 0.108397156
0000c0 65 0e 45 3e 35 01 0a bb 32 f1 08 3e bb 47 d8 3d
       0.19243772 -0.0021057848 0.13373259 0.105605565
0000d0 84 ab 64 3c eb e0 55 3e 20 9b 8b 3e d2 44 02 3e
       0.013956908 0.2088658 0.27266788 0.12721565
0000e0 ef 76 df 3d 35 53 39 3d eb 1b 1b be a8 ae 13 3e
       0.10911357 0.045245368 -0.15147369 0.14422095
0000f0 1d d2 90 bc 87 44 1f 3c 09 91 9b 3e f9 12 4a bd
       -0.017678315 0.009720928 0.3038409 -0.0493345

fc3.weight f4 [2336, 64]
000000 be 8a f7 be ef 7c 35 3d bd c2 09 3c 12 01 69 bd
       -0.4834804 0.0443086 0.008408246 -0.056885786
000010 7e 88 43 be 1b b6 4a be dd 23 d0 3d 7f d1 f4 3d
       -0.19095036 -0.1979603 0.101630904 0.11954021
000020 0d 96 2f be 54 c8 a3 3d 43 f3 0a bf be be 65 3b
       -0.17147084 0.07997194 -0.5427744 0.0035056318
000030 8b ae d2 be 34 31 d1 3d aa 19 22 3e 67 db 6a bf
       -0.4114879 0.10214463 0.15830103 -0.9174103
000040 5d fa ba bc 46 3e a1 bd ae e1 d6 3d 7f c4 e0 3c
       -0.02282446 -0.07873206 0.10492264 0.027437447
000050 79 e4 cf bd cd 38 11 be 57 f3 d3 3c fa 3e 5a bf
       -0.101509996 -0.14181824 0.02587287 -0.85252345
000060 56 4d 01 3c b0 ac 26 be 06 19 2d 3c a1 73 7a 3d
       0.0078919735 -0.16276813 0.010565048 0.06114543
000070 5a 09 53 bc 5c 5b 5d bd 18 87 a4 be 3d 80 0e be
       -0.012880648 -0.054042205 -0.32134318 -0.13916107
000080 b1 a0 56 be 0c 79 18 bf bb 8b b7 be 6e ed 41 bf
       -0.20959736 -0.595597 -0.35848793 -0.75752914
000090 0b a5 1b be a0 33 a7 be 55 05 ab bd da 9a f6 3b
       -0.15199678 -0.32656574 -0.083506264 0.007525784
0000a0 5b 67 a5 be ec b9 95 3d 64 4c 12 be 51 8d ef 3c
       -0.32305416 0.073108524 -0.14286953 0.02924219
0000b0 97 bb 45 3c bd b8 d5 bd 64 84 af 3d 43 38 5a bd
       0.012068651 -0.10435627 0.085701734 -0.05327631
0000c0 df 87 0a be 33 b4 55 3d 6c 5f 37 bc be fa 29 be
       -0.13528393 0.052173804 -0.011192184 -0.16599557
0000d0 27 e8 f1 bc cb f5 5d b9 75 df 74 bd e7 23 b3 be
       -0.029529644 -0.00021167767 -0.059783418 -0.3498833
0000e0 f0 c2 98 3c a7 41 b4 bd 2a 0b 8f bd 95 8d 50 bf
       0.018647641 -0.08801585 -0.06984551 -0.8146604
0000f0 cd a6 fe ba 63 f6 05 be ad 91 29 be cc 4b ac bd
       -0.0019428373 -0.1308227 -0.16559477 -0.084128946
000100 d0 90 02 bf 46 6c 23 bd 3b b7 3a be 24 df a8 bd
       -0.51002216 -0.03989818 -0.1823396 -0.08245686
000110 b8 46 86 3b 88 33 d6 bd ec d1 46 bd 22 f2 30 3c
       0.004097786 -0.104590476 -0.04854004 0.010799916
000120 da d8 95 3d 54 d4 84 be 30 8f 90 3d 01 05 bb bd
       0.07316752 -0.25943244 0.07058561 -0.09131814
000130 f7 8e 0a be c3 83 48 bc 4b 2a 19 be 73 0c 13 3e
       -0.135311 -0.012238446 -0.1495754 0.14360218
000140 75 3d 38 be 73 92 30 be 13 03 f1 be 4c f2 ef be
       -0.17992194 -0.17243366 -0.47072658 -0.46864545
000150 84 4b 89 bd 40 0c b4 be 8f 3b dd bd d5 16 53 bc
       -0.067038566 -0.35165596 -0.108023755 -0.012883862
000160 2e 95 4b be d1 3c 93 be 26 1f b7 be 16 47 10 be
       -0.19881126 -0.28757337 -0.35765952 -0.14089617
000170 5d 82 b8 bd bc 13 20 bd f0 8d c2 be c2 ca 89 be
       -0.0900924 -0.03908132 -0.37998915 -0.26912504
000180 e2 8b 7d bd 37 be e4 be 72 de a0 be 7d b2 02 bf
       -0.06190098 -0.44676372 -0.31419712 -0.510536
000190 86 03 14 3b 16 86 69 3d 87 ef 2b bf f6 2e 08 be
       0.0022585108 0.05701264 -0.67162365 -0.13299164
0001a0 77 4c b2 be a3 e9 9a 3d f8 21 a3 bd e4 48 ec 3c
       -0.34823963 0.07564094 -0.079654634 0.02884335
0001b0 a8 48 ac be f9 38 1c be 6c 00 a7 3d c6 e6 27 be
       -0.33649182 -0.15256108 0.08154377 -0.16396627
0001c0 75 f8 96 be a1 8a 1f 3c 1a 51 fa bd 12 56 0d be
       -0.29486433 0.009737642 -0.122225 -0.13802364
0001d0 b1 5f 1d be cb c1 a7 3b da f3 28 bd 2c a6 97 be
       -0.15368535 0.0051195375 -0.04124818 -0.29618967
0001e0 b2 b2 fe 3d 87 4a b4 be 8c 6d cb 3d b8 ff 80 be
       0.12436427 -0.3521311 0.09933004 -0.25195098
0001f0 66 76 ad 3d 7f 59 f1 be 39 b0 57 3e f6 54 db 3c
       0.08469848 -0.47138593 0.21063317 0.026773911
000200 bb d1 29 3e 58 9c 44 be 66 eb 17 bd af 2f b9 bd
       0.16583912 -0.19200265 -0.037089728 -0.09042298
000210 53 81 83 bf 71 75 fd bc 22 43 ab be c9 27 b9 bc
       -1.0273842 -0.03093979 -0.33449656 -0.022601979
000220 e3 aa 25 3b 52 b0 0c be db e8 ac be 16 26 51 be
       0.0025278858 -0.13739136 -0.33771405 -0.20424685
000230 ca bd 7f 3d 50 7f b2 bd ba e9 83 3d 84 13 b4 3d
       0.062436856 -0.08715689 0.06441064 0.08792785
000240 e2 8b ca 3d 7e d1 97 bd 39 ee 36 be a9 81 b9 3b
       0.09889962 -0.07413004 -0.17864312 0.0056612086
000250 b3 f4 4c bb 07 eb b8 bc d1 06 e0 3d ef ae a6 be
       -0.0031273782 -0.022573007 0.109388 -0.3255534
000260 32 9e 37 bd a6 16 16 3e 7c c5 a6 bc b3 1a c8 be
       -0.0448286 0.14657077 -0.02035784 -0.3908287
000270 af c7 33 be c2 70 23 be 4e 5c 6c 3e 13 1a 31 bd
       -0.17556642 -0.15960982 0.23082086 -0.043237757
000280 ce 10 aa 3d 5f 65 d3 3c dc ea ea 3c bc 3f f9 3d
       0.083039865 0.025805173 0.028676443 0.121703595
000290 df 46 c5 bc 82 f3 23 be 91 c7 1c be 52 c3 42 be
       -0.024081646 -0.1601086 -0.15310504 -0.19019821
0002a0 fa 8d 24 bc e5 fb 0a bf c3 8f 1d bd d9 86 15 be
       -0.0100436155 -0.5429061 -0.03846718 -0.14602222
0002b0 02 3a 1f bd b7 73 05 3d 68 bc d6 bc ed ef 8d bb
       -0.03887368 0.032581057 -0.026212886 -0.00433158
0002c0 5e 68 75 bd 74 3a 45 be 54 e0 e1 bd cb a7 a6 bd
       -0.059913985 -0.1926058 -0.11029115 -0.08137473
0002d0 97 2c ee bc e4 f7 3b bd 9a b5 8e be a0 0f 30 3d
       -0.029073996 -0.045890704 -0.27872926 0.04298365
0002e0 ba 99 27 3d 9c 4a e8 bd 90 55 04 3d 8d 33 db bd
       0.04091809 -0.113423556 0.03230816 -0.10703192
0002f0 1c ae 30 be c4 45 a0 3d 3e 18 8f be fa f9 bb be
       -0.17253917 0.07825807 -0.27948183 -0.36714154
000300 28 8b 42 be 82 ae 03 3d 3c 08 b3 bd a0 50 2c bd
       -0.18998396 0.032148845 -0.08741805 -0.042069077
000310 90 6d de 3c db a7 52 3c 50 80 67 3d d0 45 24 bd
       0.027151853 0.012857403 0.056518853 -0.04010564
000320 c5 dd 6b bd 9a 87 36 be 2a de 84 bd f0 36 96 bd
       -0.057584543 -0.17825165 -0.06487687 -0.07334697
000330 88 d1 a5 bd 5e 45 ca be a3 b3 26 3e e0 b6 f0 ba
       -0.080966055 -0.39506048 0.16279463 -0.0018365048
000340 77 18 21 3d 05 4f 90 bd 74 af 36 be a3 62 ae bd
       0.039329972 -0.07046322 -0.17840368 -0.08514907
000350 08 72 59 bc ee 93 9d be e1 63 d1 3b ff 2f 92 be
       -0.013271816 -0.30776924 0.0063900803 -0.28552243
000360 cb 7c e1 be d6 7a be bd fd 12 06 be d2 ea 72 ba
       -0.44040522 -0.09300773 -0.13093181 -0.00092665583
000370 94 5e 52 3d f8 71 68 bc 15 78 83 3c 66 71 ee 3c
       0.051359728 -0.0141873285 0.01604847 0.029106807
000380 39 7d 97 3d 0c 52 5c be 21 b3 58 bb b2 d2 20 be
       0.07396931 -0.21515673 -0.0033065754 -0.15705374
000390 ec 94 2d bf a4 a1 dd 3d ae 0f 28 bf be c1 0b 3e
       -0.6780536 0.10821846 -0.65648925 0.13648126
0003a0 36 c4 b5 be 6f 3a 2e bb 44 ac a8 3b 2b 28 8d 3d
       -0.3550126 -0.0026585122 0.005147489 0.06892427
0003b0 8e fe 38 bd fe 43 16 be c2 c6 68 bd 78 6a 56 bd
       -0.045164637 -0.14674374 -0.056830175 -0.05234763
0003c0 86 fc cf be 58 34 e8 bd 63 ef bc be 4f 60 ca 3d
       -0.40622348 -0.11338109 -0.36901388 0.09881651
0003d0 91 f2 92 3b e6 7d 0a bd 9a 33 1f bf cc 1a 82 bd
       0.0044844826 -0.033811472 -0.6218811 -0.06352767
0003e0 76 73 ea 3d 63 6c fc be d0 a1 25 3d f4 42 0b bb
       0.11447804 -0.49301443 0.04043752 -0.0021249624
0003f0 f1 1c 87 bd dd fc a7 be e7 56 58 be e3 67 81 3d
       -0.06597317 -0.32810107 -0.211269 0.06318643

fc3.bias f4 [2336]
000000 67 68 cb bc ae b3 29 be 4f 54 a6 bc 47 95 85 3d
       -0.024830056 -0.16572449 -0.020303873 0.06522613
000010 46 d0 5d bc f3 ed 89 bd 22 a1 d8 bd 74 08 96 3b
       -0.013538426 -0.06734838 -0.10577609 0.0045786444
000020 47 b9 b8 bd 9a 6d b3 bd 2d ee 53 bd ca 96 88 3d
       -0.09019714 -0.08761139 -0.051740814 0.06669386
000030 1e 81 5c 3d 74 d8 37 3d 42 67 f6 bd ea 6d ee bd
       0.053834073 0.04488416 -0.120314136 -0.11642058
000040 45 17 15 bd 8a 9a 0c be 9f 74 72 ba a1 44 eb bd
       -0.036399145 -0.13730827 -0.0009248945 -0.11487699
000050 1e f3 5b bd 5e f3 02 3d f7 e4 22 be bf 0b e9 bd
       -0.05369865 0.031970374 -0.15907656 -0.113791935
000060 b6 db 31 bd ce f0 25 be f4 e9 ac bc 24 c5 c5 bd
       -0.043422423 -0.16205141 -0.021107651 -0.09656742
000070 ca 37 02 be 61 0e d1 bb 73 37 01 be 47 5f b5 bc
       -0.12716594 -0.006379888 -0.12618808 -0.022140158
000080 16 8c 1d be 1f 99 4a bd ac fd 82 bd d3 2f 07 be
       -0.1538547 -0.049462434 -0.0639604 -0.13201837
000090 93 f2 83 3d 19 d5 1b 3a 06 b0 55 3d c5 f1 d8 bd
       0.06442752 0.0005944535 0.052169822 -0.10592989
0000a0 43 f7 65 bd 5a 7b b0 bd f0 16 73 bc 5f 48 e0 3a
       -0.05614401 -0.086172774 -0.014837012 0.0017111412
0000b0 2d ac e8 bd f8 d9 8a bd 61 e0 5c bd 95 b8 40 be
       -0.11360965 -0.067798555 -0.053924922 -0.18820412
0000c0 0c 88 f1 bd a5 84 fc bb 9c 05 00 be a5 fd 0a be
       -0.11793527 -0.007706242 -0.1250214 -0.1357332
0000d0 9a ad 0f be cc 7e 83 3d dc 35 3e 3d a6 c6 2b 3d
       -0.14031067 0.06420669 0.046438083 0.041937493
0000e0 09 dc fc bd 9d c1 a7 bd 40 35 34 be 27 5e f6 bb
       -0.12346656 -0.08191226 -0.17598438 -0.007518548
0000f0 5d a1 5c 3d 80 e6 b5 3c 3b 39 91 bd 80 0b 2f be
       0.053864826 0.022204638 -0.07090994 -0.1709423
000100 47 13 1f 3d be 8c cd bd 6f a8 f9 bd f6 d9 bf bd
       0.038836744 -0.1003661 -0.12190329 -0.093677446
000110 cc 01 35 be f9 07 a0 bd 72 97 c2 bd 17 01 32 3d
       -0.17676467 -0.07814021 -0.09501542 0.04345807
000120 7d 96 9e bd 21 cb 29 be 3b 9d 13 be e2 cb e2 bc
       -0.07743547 -0.16581394 -0.14415447 -0.02768511
000130 bc f9 a7 bd 39 46 2b 3c f9 68 e6 bd ec be c0 bd
       -0.0820193 0.010453754 -0.11250491 -0.094114155
000140 b7 23 9e 3d 57 f8 95 bd a0 bd 8a bd 56 c8 62 bd
       0.07721656 -0.07322758 -0.06774449 -0.055366836
000150 0d 09 c5 bd e4 53 3c bd 24 ac dc bd 2a 3a 1e bc
       -0.09620867 -0.04597844 -0.10775021 -0.009657422
000160 92 6f 9a bd e4 36 6b bc 25 18 39 bd cc 04 d6 bc
       -0.075408116 -0.014356349 -0.04518904 -0.026125334
000170 49 e4 04 be 16 87 91 bd 6e c0 27 be 9d 7c 15 be
       -0.12977709 -0.07105844 -0.16382 -0.14598317
000180 d4 e0 ef bc 28 8f 46 bd b2 c2 df bc 15 df 95 bd
       -0.029282011 -0.04847637 -0.027314518 -0.0731794
000190 9b 71 cf bd 5a a5 0e be 54 27 89 3d fd 7f 5f be
       -0.101290904 -0.13930264 0.06696954 -0.21826167
0001a0 d4 98 af bd 83 52 07 be d7 b4 ed bd 9f 3a 41 bd
       -0.085740715 -0.1321507 -0.11606758 -0.047175046
0001b0 f7 f8 af bc 7c ec 00 be ff 99 01 be e1 98 2b be
       -0.02148102 -0.12590212 -0.12656401 -0.16757537
0001c0 57 0b 2c be 91 19 4e 3d 6d f2 36 be 29 c0 e0 bb
       -0.16801201 0.05031735 -0.17865916 -0.006858845
0001d0 fd 7b 8d bd f8 fa b1 bd 3f fe 09 bd 65 c1 9d 3c
       -0.069084145 -0.086904466 -0.033689734 0.019257257
0001e0 2c 3e f2 bd e0 8d 30 3d ca 7a d3 bd 5d ac bc bd
       -0.118282646 0.043104053 -0.103261545 -0.09212563
0001f0 0e 97 17 3c e6 b9 f6 3d 0f a0 93 bd a1 06 86 bd
       0.009252323 0.12047176 -0.07208263 -0.06544233
000200 00 d5 db bd 97 1a 85 3d 77 0e 42 3d de 5f 7b bc
       -0.10733986 0.06499212 0.047377076 -0.015342681
000210 bb 10 f1 3d 36 ee d3 3d 95 14 e3 bd ae ac 7e bd
       0.11770769 0.103481695 -0.1108791 -0.0621764
000220 99 2f 23 be 01 82 9f 3d 6c 44 67 3b 95 69 1f be
       -0.15936126 0.07788468 0.0035288585 -0.1556762
000230 f3 c6 76 be b1 4b 10 be d9 03 dd bd 73 db 0d be
       -0.2409933 -0.14091374 -0.107917495 -0.13853244
000240 3f fe d7 bd c8 9d 18 3c ee 5e 18 be bb 8b e3 bd
       -0.105465405 0.009314962 -0.14879963 -0.11110636
000250 cb d0 6d 3d 88 06 17 be bc 14 29 bd 10 b1 67 be
       0.05806045 -0.14748585 -0.04127954 -0.22626138
000260 1a ed 0a bd 44 34 b5 bd e0 72 06 be 33 de 99 bd
       -0.033917524 -0.088478595 -0.13129759 -0.07513084
000270 d5 d5 b2 bc c5 0c aa 3d d2 55 24 3d d8 1d 07 3d
       -0.021830479 0.08303217 0.040120907 0.032987446
000280 7a b6 9a 3d 1c 3f 65 be cc 3b 89 bd 89 91 2a 3d
       0.07554336 -0.22387356 -0.067008585 0.0416427
000290 2d 81 3e bc ce ea 49 3c 3e d3 11 3c fb 22 95 3d
       -0.011627478 0.012324048 0.008900462 0.072820626
0002a0 11 f8 a5 bd 8b 0f a8 bc b8 00 b2 bc b8 2b 29 be
       -0.081039555 -0.020515224 -0.021728858 -0.16520584
0002b0 8c 3e 1b 3c d1 ed 43 bc 50 59 d0 bc 12 33 47 3c
       0.009475362 -0.011958555 -0.025433213 0.012158172
0002c0 6c 6c 55 3d 6b 9e 34 3d 8c 5c 53 be 84 31 5a 3c
       0.052105352 0.04409639 -0.20640773 0.0133174695
0002d0 07 f5 ef bd 36 78 da bd dc 35 8e bd b8 2d 03 be
       -0.11716657 -0.1066746 -0.069438666 -0.12810409
0002e0 cb 70 05 be 30 bc 33 be 66 16 91 bd b2 6d c4 bd
       -0.13031308 -0.17552257 -0.0708435 -0.09591235
0002f0 ee 95 3f 3d e4 1e 79 3d a1 85 8c 3b 1d 1b ec bd
       0.046773843 0.060820475 0.0042883907 -0.11528609
000300 7d e9 3a bd 04 6c 49 3d 76 a6 8a bd a2 80 9f bd
       -0.045632828 0.049175277 -0.06770031 -0.07788207
000310 55 19 9a bc c1 55 0d 3d c0 c1 0f 3d aa 04 9d bd
       -0.018810907 0.03450561 0.035096884 -0.07666905
000320 89 01 de bd d6 21 2a be 72 95 21 be bd 69 4b 3b
       -0.108401366 -0.1661447 -0.15779665 0.0031038367
000330 22 a4 64 bd 34 14 c6 bd 7f 11 4e bd 3a 0d 88 ba
       -0.05582059 -0.09671822 -0.050309654 -0.0010379918
000340 1d 7b 5d bd bb 05 75 bc ba 3a d2 bd 9f ea 82 3c
       -0.054072488 -0.0149549795 -0.102651075 0.015981017
000350 96 f6 86 bc f4 1f 96 3d 2d 5a 8d 3d 04 d9 dc bd
       -0.016475003 0.07330313 0.06901965 -0.1078358
000360 05 31 4d 3d f1 10 a4 bd 41 85 32 bd 49 09 f3 bd
       0.050095577 -0.08011044 -0.043584112 -0.118670054
000370 e4 2c 81 bc e1 0a 94 3d 63 ef 72 bc 18 63 1b be
       -0.015768476 0.072286375 -0.014827582 -0.1517452
000380 83 50 0e be 21 24 7d ba 15 07 e3 bd df d6 10 be
       -0.138979 -0.00096565677 -0.11085335 -0.14144467
000390 ba d9 77 bd 95 53 fe 3c 78 f6 7b 3c a5 22 a3 3d
       -0.060510375 0.031045714 0.015378587 0.07965592
0003a0 9b 9b b1 bd d9 83 18 bd 09 0d 4f 3c 54 86 1c bb
       -0.086722575 -0.037235115 0.012637385 -0.0023883777
0003b0 df 18 22 3d 47 e5 cb bd 15 9b 0d bd 01 71 be bd
       0.0395745 -0.099558406 -0.034571726 -0.092988975
0003c0 9f 1b 06 3d 8d 6a a7 bd 5f 54 09 be 8f a7 c2 bc
       0.032741185 -0.0817462 -0.13411091 -0.023761539
0003d0 e6 f6 c3 bd 6b 20 42 3c 8f 01 14 3d 1a c9 94 3d
       -0.095685765 0.011848549 0.0361343 0.072649196
0003e0 b0 ef 1a be bb 09 a6 3d 8a 03 cd bd 8f c2 f9 bd
       -0.15130496 0.08107325 -0.10010441 -0.12195312
0003f0 a9 45 e9 bd 47 2c 57 3d 35 6f 6d 3c a1 04 7b bd
       -0.1139024 0.05253246 0.014491846 -0.06128371
